…
        data = data.shuffle(buffer_size=len(data))
        data = data.batch(40)
        data = data.prefetch(20)

        # Define class weights (adjust as needed)
        class_weight = {0: 3, 1: 1}

        # Train the model for one epoch with the current batch
        model.fit(data, epochs=4, class_weight=class_weight)#, validation_data=testData)

Output:


Model: "sequential"
_________________________________________________________________
 Layer (type)                Output Shape              Param #   
=================================================================
 conv2d (Conv2D)             (None, 60, 61, 16)        416       
                                                                 
 batch_normalization (BatchN  (None, 60, 61, 16)       64        
 ormalization)                                                   
                                                                 
 activation (Activation)     (None, 60, 61, 16)        0         
                                                                 
 conv2d_1 (Conv2D)           (None, 58, 59, 32)        4640      
                                                                 
 batch_normalization_1 (Batc  (None, 58, 59, 32)       128       
 hNormalization)                                                 
                                                                 
 flatten (Flatten)           (None, 109504)            0         
                                                                 
 dense (Dense)               (None, 128)               14016640  
                                                                 
 batch_normalization_2 (Batc  (None, 128)              512       
 hNormalization)                                                 
                                                                 
 activation_1 (Activation)   (None, 128)               0         
                                                                 
 dropout (Dropout)           (None, 128)               0         
                                                                 
 dense_1 (Dense)             (None, 1)                 129       
                                                                 
=================================================================
Total params: 14,022,529
Trainable params: 14,022,177
Non-trainable params: 352
_________________________________________________________________

loading
./trainingDataNeg8khz/Shopping71.json
./trainingDataNeg8khz/handclapsFolderTrain.json
./trainingDataNeg8khz/urban8k_18.json
…
